CartPole/Direct_state_values/CartPole-v0_or_v1_direct_values.pth (torch_old, 40349 bytes, 6 tensors)

weight f4 [128, 4]
0	0xc024dfe7	-2.576166
1	0xc00cfad5	-2.2028096
2	0xc019ab9f	-2.4011
3	0xbfac98bf	-1.3484114
4	0x3f0a0a9c	0.5392244
5	0xbe9ba652	-0.3040033
6	0xc046feec	-3.1093092
7	0xc06ac294	-3.668126
8	0x3d7ed930	0.062218845
9	0xbc10a240	-0.008827746
10	0xbe8a9036	-0.2706315
11	0xbd9759d0	-0.07390177
12	0xc05a2e5b	-3.4090793
13	0xbf92fa0d	-1.148256
14	0xbfa84772	-1.3146803
15	0xbf4ce4c4	-0.8003657
16	0xc036f180	-2.85849
17	0xbf889896	-1.0671566
18	0xc09d5ce5	-4.9175897
19	0x3eb03530	0.3441558
20	0xbee6c54e	-0.45072407
21	0x3f5eefe7	0.8708481
22	0x4065d655	3.5912068
23	0x3f81e175	1.0146929
24	0xbe690819	-0.22756995
25	0x3de0c036	0.10974161
26	0x40f73a80	7.725891
27	0x3f0222b3	0.50834197
28	0xc022dde6	-2.5447936
29	0xc00c264a	-2.189837
30	0xc01fdab4	-2.4977236
31	0xbfa1ccd7	-1.2640637
32	0x3ee0de93	0.4391981
33	0xbd1391fe	-0.0360279
34	0x3ec4f579	0.3846853
35	0x3e0fc043	0.14038186
36	0xc0150917	-2.3286798
37	0xc0107458	-2.257101
38	0xc00590fc	-2.0869741
39	0xbfb1831c	-1.3868136
40	0xc049952a	-3.1497293
41	0xbfb5a22f	-1.419012
42	0xbf773a0d	-0.96572953
43	0xbf6de621	-0.92929274
44	0xc05d3eee	-3.456966
45	0xc00b1982	-2.1734319
46	0xbf5557a9	-0.83336884
47	0xbfbd105c	-1.4770617
48	0xc0316084	-2.7715158
49	0xc006fc20	-2.1091385
50	0xbfee3288	-1.8609171
51	0xbf9807cb	-1.1877378
52	0xc019dc5c	-2.4040747
53	0xc002780c	-2.038577
54	0xbf907fc8	-1.1288996
55	0xbf9f5903	-1.2449039
56	0xc04c6f8e	-3.1943088
57	0xc017cbf3	-2.371823
58	0xc029c787	-2.6528032
59	0xbf9d36ca	-1.2282345
60	0xc05703ef	-3.359615
61	0xc010ef1c	-2.264594
62	0xc03902b6	-2.8907905
63	0xbf8f6aae	-1.1204431
64	0xbf04eeb5	-0.5192674
65	0x3f3ecd1d	0.7453173
66	0xc02b1b80	-2.6735535
67	0xbfc9b388	-1.5757914
68	0xbfdf40f5	-1.7441698
69	0xbfb6b0a4	-1.4272656
70	0xc08a2860	-4.3174286
71	0xbf17a80e	-0.59240806
72	0x3c812357	0.015763922
73	0xbf3fc0ce	-0.7490357
74	0xc007dab6	-2.122724
75	0x3e2716c1	0.16317274
76	0xc00962aa	-2.146647
77	0xbf822e4d	-1.017038
78	0x3f1c3954	0.61024976
79	0xbf3997aa	-0.72497046
80	0xc05d7807	-3.460451
81	0xbfda6e6b	-1.7064947
82	0xbfcd7f3e	-1.6054456
83	0xbf9060da	-1.1279557
84	0x3e86209c	0.26196754
85	0xbebce2f6	-0.36891907
86	0x40e0139b	7.0023932
87	0xbc73efb6	-0.0148886945
88	0xc00fcbf3	-2.246823
89	0xbfec3956	-1.8454998
90	0xc0029e7c	-2.040923
91	0xbf8ce244	-1.1006551
92	0xc03a8b4b	-2.9147518
93	0xbf9eeb0c	-1.2415481
94	0xbf9de574	-1.2335649
95	0xbf4444fe	-0.76667774
96	0xc028f3ce	-2.6398807
97	0xbfe4fdae	-1.7889917
98	0xbf2f0569	-0.6836763
99	0xbf8c9e68	-1.0985842
100	0xc00e357d	-2.2220147
101	0xc042ca43	-3.043595
102	0xc018a78d	-2.3852265
103	0xbfefa7c1	-1.872307
104	0x3e30f4ce	0.17280886
105	0xbcc8ca99	-0.024510669
106	0x40e80c87	7.251529
107	0x3f1af84c	0.6053512
108	0x3f53cc4f	0.82733625
109	0x3f0ec4df	0.5576915
110	0xbfd74d81	-1.6820527
111	0xbfc8fba8	-1.5701799
112	0xc01b5c0c	-2.427493
113	0xc0a9c883	-5.3057265
114	0xbff38674	-1.9025407
115	0xc04c8895	-3.1958363
116	0x3e1044e4	0.1408878
117	0xbd76d64c	-0.060262963
118	0x3f629f5a	0.885244
119	0xbd5bd4b1	-0.053669635
120	0x3f9644ad	1.1739708
121	0x3ff83e66	1.9394042
122	0x3fe13df5	1.7597033
123	0x3faa84fa	1.3321831
124	0xc049cd27	-3.1531465
125	0xc082e47c	-4.090391
126	0xc021da85	-2.5289624
127	0xc01a2075	-2.408231
128	0xc0328287	-2.7892168
129	0xbfe8dcc2	-1.819237
130	0xbfb157ad	-1.3854882
131	0xbf8561ce	-1.0420473
132	0xbda07deb	-0.07836517
133	0xbea48a53	-0.32136783
134	0xbea486fe	-0.3213424
135	0xbf00cd97	-0.50313705
136	0x400f2da9	2.2371619
137	0x4004924d	2.0714295
138	0xc00100a2	-2.0156636
139	0xbff01242	-1.8755572
140	0xbeac001a	-0.33593827
141	0x3db6982e	0.08915745
142	0x40b3f585	5.6237206
143	0x3ea5198c	0.32246053
144	0xbf9b59fb	-1.2136835
145	0xbffeb689	-1.9899455
146	0xc0208546	-2.5081344
147	0xbf9670f8	-1.1753225
148	0x3fcc313a	1.5952523
149	0x3feb0f8f	1.8364123
150	0x401654df	2.3489301
151	0x3f900a0f	1.125307
152	0xbfea2749	-1.8293239
153	0xc01af878	-2.4214153
154	0xbfadcccf	-1.3578128
155	0xbfb7661d	-1.4328038
156	0xc04d06c7	-3.2035387
157	0xbfa9aa9c	-1.3255191
158	0xbfdb0a1b	-1.7112459
159	0xbf4f27a5	-0.8091987
160	0x3e9bd63e	0.3043689
161	0x3f76bca5	0.963816
162	0xbf8bd0e1	-1.092312
163	0xbfd91e79	-1.6962425
164	0xc01fdafa	-2.4977403
165	0xc0831eac	-4.097494
166	0xc02d829e	-2.7110972
167	0xc00833ea	-2.1281686
168	0xbfec5f9e	-1.846668
169	0xbfcc0238	-1.5938177
170	0xc0d75cb4	-6.7300663
171	0x3ee353e2	0.44399935
172	0xc028cd38	-2.6375256
173	0xc0843d1d	-4.13246
174	0xc05117c1	-3.2670748
175	0xbffc1128	-1.9692736
176	0xc03fddb6	-2.9979072
177	0xc00a6551	-2.1624339
178	0xc00880af	-2.1328542
179	0xbf97add6	-1.1849926
180	0xc0094ff2	-2.1455045
181	0xc0089012	-2.1337934
182	0xbf804bbc	-1.0023112
183	0xbfa84ee2	-1.3149073
184	0xbc0cfaa0	-0.0086046755
185	0x3f1f13e3	0.6213972
186	0xc03bf3a9	-2.9367468
187	0xc02e38a9	-2.7222083
188	0x3dd357ba	0.10319467
189	0xbd45e7b7	-0.048316684
190	0x41299c1b	10.600612
191	0x3f93392e	1.1501825
192	0xbd960c00	-0.073265076
193	0x3f48068b	0.78134984
194	0xbf9f1cdd	-1.2430683
195	0xbfbfc984	-1.4983373
196	0x3f946214	1.1592431
197	0x3fbcdf33	1.4755615
198	0x4023f706	2.561952
199	0x3f747806	0.9549564
200	0x3e83caff	0.2574081
201	0xbeb6b1a1	-0.35682395
202	0x40c60018	6.1875114
203	0x3e56315a	0.20917264
204	0xbd4c2985	-0.049844284
205	0x3e874f32	0.2642761
206	0xbfa012ff	-1.2505797
207	0x3ebdd8ea	0.37079555
208	0xbdd99821	-0.106247194
209	0x3e6dd7a5	0.23226793
210	0xbfb313b4	-1.3990388
211	0x3e983d08	0.29734063
212	0x3ef9aae8	0.48763204
213	0xbf191f88	-0.5981374
214	0xc031e453	-2.7795608
215	0xbfbd5d54	-1.4794106
216	0xc0484c26	-3.1296477
217	0xbfebc5dc	-1.8419757
218	0xbf9c61fc	-1.2217402
219	0xbf965e15	-1.1747462
220	0xbec82a34	-0.39094698
221	0x3f17ed65	0.5934661
222	0x408d21ef	4.4103923
223	0x3f56c086	0.8388752
224	0xbe7a378e	-0.24435255
225	0x3f004eac	0.50120044
226	0xbf61b537	-0.88167137
227	0x3ef35c24	0.47531235
228	0xc032c388	-2.7931843
229	0xbfef46bb	-1.869346
230	0xc0143133	-2.315503
231	0xbf90ee7e	-1.1322782
232	0xc04e3c93	-3.2224472
233	0xc023e310	-2.5607338
234	0xc0148f97	-2.321264
235	0xbfb4ac08	-1.4115
236	0xbf696bc1	-0.91180044
237	0xbe80b98b	-0.25141558
238	0x40b40e9d	5.626784
239	0x3f3e600e	0.7436532
240	0xbda8d67a	-0.08244033
241	0x3e6b88f4	0.23001462
242	0x410ed9f7	8.928214
243	0x3fb471a2	1.4097178
244	0xc0189ecd	-2.3846924
245	0xbfd0209a	-1.6259949
246	0xbff105ae	-1.8829858
247	0xbf798139	-0.97462803
248	0x403fc4a1	2.9963763
249	0x403f38df	2.9878461
250	0x403c87b3	2.9457824
251	0x3ff1e78f	1.8898791
252	0xbf07e772	-0.5308753
253	0xc03c8ff6	-2.9462867
254	0xbffc8164	-1.9726987
255	0xbfdb31c3	-1.7124561

bias f4 [128]
0	0x3eea53bf	0.45767018
1	0x3f073e1a	0.52829134
2	0xbec43e04	-0.38328564
3	0x3e8fbe96	0.28075093
4	0x3fea4f6a	1.8305485
5	0x3e8081c1	0.25098994
6	0x3ed9f7cc	0.42571867
7	0x3ed1d4fb	0.40982804
8	0xbf215862	-0.63025486
9	0x3ea23f65	0.3168899
10	0x3eaa1681	0.33220294
11	0x3ed8b31e	0.42324156
12	0x3eb81ba4	0.35958588
13	0x3e8072f1	0.25087693
14	0x3f1dcba0	0.6163883
15	0x3f4d64bb	0.8023183
16	0x3f204856	0.62610376
17	0x3f0e286e	0.5553044
18	0x3ebec4e6	0.37259597
19	0x3f1965a3	0.5992071
20	0x3ec68c56	0.38778943
21	0x3e81ee85	0.25377288
22	0x3eabbf48	0.33544374
23	0x3eb49bd3	0.35275134
24	0x3ea827ee	0.32842964
25	0x3f33049c	0.6992891
26	0x3edc93d6	0.4308154
27	0x3f2afb13	0.6678936
28	0xbe1860c4	-0.14880663
29	0xbe740580	-0.23830223
30	0x3d15068a	0.03638319
31	0xbd7beb65	-0.061503787
32	0x3e9be8a1	0.3045092
33	0xbf0a9a3c	-0.5414159
34	0x4060a0cc	3.5098143
35	0x3e556b16	0.20841631
36	0x3e69fffc	0.22851557
37	0xbda47d89	-0.080317564
38	0x3e6f6cf5	0.23381408
39	0x3ebf15c6	0.373213
40	0x3f114713	0.56749076
41	0x3fb11d8c	1.3837142
42	0x3fafa281	1.3721467
43	0x3e8ba17a	0.27271634
44	0x3ea4935f	0.32143685
45	0x3e8c0150	0.2734475
46	0x3f9cf488	1.2262125
47	0x3f462b74	0.77410054
48	0x3f6db3ae	0.92852294
49	0xbcb254f6	-0.021769028
50	0xbe29b487	-0.16572772
51	0xbed3c14e	-0.41358417
52	0xbe8af619	-0.27140883
53	0xbf690264	-0.9101927
54	0x3e9119fb	0.28340134
55	0x3ea2c7b7	0.31792995
56	0xbe926c58	-0.28598285
57	0x3f04c059	0.51856
58	0x3eaabecb	0.33348688
59	0x3e8d7a67	0.27632448
60	0x3f497ae0	0.7870312
61	0x3f14acfd	0.5807646
62	0xbe419531	-0.18904568
63	0x3e22b6d8	0.15890062
64	0x3e8e2ed1	0.27770093
65	0xbd8e28ef	-0.06941401
66	0xbe422987	-0.18961154
67	0x3e98fd79	0.29880884
68	0x3e87457c	0.264202
69	0xbf41d761	-0.7571927
70	0xbf4c3b2a	-0.7977778
71	0xbf8e188e	-1.1101243
72	0x3e773b5b	0.24143736
73	0x3e9f9928	0.31171536
74	0x3ea34838	0.31891036
75	0x3f9f4fa1	1.2446176
76	0x3f26d697	0.6517119
77	0x3ec86410	0.39138842
78	0x3e9d32bd	0.30702773
79	0x3edfbe26	0.4369976
80	0x3ec1b6a6	0.37834662
81	0x3fb52763	1.4152645
82	0x3dfc415e	0.12317155
83	0x3eb20c3c	0.3477496
84	0x3eae1dae	0.3400702
85	0xbee483ae	-0.44631714
86	0x3e975c6e	0.29562706
87	0x3ebf80b2	0.37402874
88	0x3e67e530	0.22646022
89	0xbef69e2a	-0.48167545
90	0x3ea1ed76	0.3162648
91	0xbf6dd51b	-0.929033
92	0xbd577f7e	-0.05261182
93	0x3e996498	0.2995956
94	0xbe6a7d33	-0.22899322
95	0x3eb2a1dc	0.34889114
96	0x3edc29fa	0.43000776
97	0x3e0b3b50	0.13596845
98	0xbf414f03	-0.7551119
99	0x3e95eeeb	0.29283842
100	0xbef2c71c	-0.47417533
101	0xbe18db31	-0.14927365
102	0xbf11c4a8	-0.569407
103	0x3edaf5b8	0.42765594
104	0x3eb450a2	0.35217768
105	0x3fc4fbe6	1.5389373
106	0x3ea65e4d	0.3249382
107	0x3ea4d97f	0.32197186
108	0xbf22d008	-0.6359868
109	0xbf108cce	-0.5646485
110	0xbe12ed7e	-0.14348409
111	0x3e97f95b	0.2968243
112	0x3deff296	0.117161915
113	0xbf18233b	-0.5942876
114	0x3edb0e66	0.42784423
115	0xbeaf9308	-0.34291863
116	0x3e86f799	0.26360777
117	0x3e297735	0.1654938
118	0xbf14b50d	-0.5808876
119	0x3ef02b78	0.46908164
120	0x3e5acfdf	0.21368359
121	0x3eb43c05	0.3520204
122	0x3f0fbaa5	0.5614417
123	0x3e9ab6f8	0.3021772
124	0x3e9fa6d2	0.3118196
125	0x3e9fdc74	0.3122288
126	0x3f64ebe2	0.8942243
127	0x3e4aac77	0.19792353

weight f4 [64, 128]
0	0x3ebef12d	0.37293378
1	0xbf7f72fd	-0.99784833
2	0x3cf40f30	0.029792398
3	0x3eb8c25a	0.36085778
4	0x3f6f1ff4	0.9340813
5	0xc08aba84	-4.335268
6	0xc04d8fbc	-3.2118979
7	0x3eafc9e3	0.34333715
8	0xbf1f46d5	-0.62217456
9	0x3eb539be	0.35395616
10	0x3f735418	0.9505019
11	0x3edec632	0.43510586
12	0x3ebb7ca8	0.36618543
13	0x3f1f34ce	0.6218995
14	0x3ef02238	0.46901107
15	0x3ecbc098	0.39795375
16	0xbfed2aff	-1.8528746
17	0x3eac137e	0.3360862
18	0x3f230b2a	0.6368891
19	0x3f713550	0.94221973
20	0x3ddde7d0	0.1083523
21	0xbfba1b6b	-1.4539617
22	0x3f147b25	0.58000404
23	0x3edd8506	0.4326555
24	0x3f4aed7b	0.79268616
25	0x3f10b6e3	0.56529063
26	0xc01fbab6	-2.495771
27	0x3f962eab	1.1732992
28	0x3fc6a1b4	1.5518098
29	0xbf2ac425	-0.6670554
30	0xc0329332	-2.790234
31	0x3fb5e4a7	1.4210404
32	0x3ef09578	0.46989036
33	0xbfa3b321	-1.2789041
34	0x401aab74	2.4167147
35	0xc05a4180	-3.4102478
36	0x3f5e2c96	0.8678678
37	0xc0b97ce3	-5.796495
38	0x3fb60174	1.4219193
39	0x3f089492	0.533517
40	0xbeffd1ac	-0.49964654
41	0x3f76c1f1	0.9638968
42	0x3fa18e7a	1.2621605
43	0x3f7403b6	0.9531816
44	0x3e8853a2	0.26626307
45	0x3fb40c41	1.406624
46	0xbe1699ab	-0.14707057
47	0xbfdaa3b6	-1.7081211
48	0x3eb81233	0.35951385
49	0xc0823167	-4.0685306
50	0xc00885b4	-2.1331606
51	0xbdfe7da8	-0.12426311
52	0xbe9e06d3	-0.3086458
53	0xbf41fa69	-0.7577272
54	0x3f5372e7	0.825972
55	0xc060f101	-3.5147097
56	0xbf40f7df	-0.7537822
57	0x3ec72fae	0.38903564
58	0x3ea5a6f3	0.32353935
59	0xc092aa50	-4.58329
60	0xbfcccd18	-1.600009
61	0x3e125104	0.14288718
62	0xc0d5b0ac	-6.6778164
63	0x3fb9b7b3	1.4509186
64	0x3f55684e	0.8336228
65	0xc06003b0	-3.500225
66	0x3e1b547c	0.15168947
67	0x3ef06c5e	0.46957678
68	0x3ec117fd	0.37713614
69	0xc033241f	-2.7990797
70	0xbf035c6e	-0.5131291
71	0xc013996e	-2.3062396
72	0xc018051c	-2.3753119
73	0x3e87a1c1	0.26490596
74	0x3ec32a19	0.38118055
75	0x406556d2	3.583424
76	0x3f8c4721	1.0959207
77	0x3fb1fdb0	1.3905544
78	0x3f09b62a	0.53793585
79	0x3f0d5b88	0.5521779
80	0x3e70efaf	0.23528932
81	0x405a47b9	3.4106276
82	0x3f9b29fa	1.2122185
83	0x3f1e70d9	0.6189094
84	0x3f8f9dea	1.1220067
85	0xc002fb6c	-2.0465956
86	0x3f53030d	0.8242653
87	0x3f45e8c7	0.77308315
88	0xbf896cfc	-1.0736384
89	0x3c567140	0.013088524
90	0xbfec809a	-1.8476746
91	0xbfb4ee13	-1.4135154
92	0xc0944bab	-4.634237
93	0x3f3fabb5	0.7487138
94	0x3f9bc24f	1.2168673
95	0x3f86c4f2	1.0528853
96	0x3eb0664d	0.3445305
97	0x3f898e65	1.074658
98	0xbdf873fa	-0.12131496
99	0x3f31ecaa	0.69501746
100	0x3da452eb	0.08023628
101	0x3f9bcc8e	1.21718
102	0xbfabe7a7	-1.343007
103	0x3eb250e4	0.3482734
104	0x3f95562b	1.1666921
105	0xbf3ba5e1	-0.73299986
106	0x3f2e90ce	0.68189704
107	0x3f9e21b0	1.2354031
108	0xbf851c69	-1.0399295
109	0xc0776bf1	-3.8659632
110	0xbf27152c	-0.6526668
111	0x3f16ee6e	0.58957565
112	0xc027e3b4	-2.623273
113	0xc044c28e	-3.0743747
114	0x3f0ed9d2	0.5580112
115	0xbd955354	-0.07291284
116	0x3f8f1825	1.1179243
117	0x3f1a9a0e	0.6039132
118	0xbde7b90a	-0.1131459
119	0x3ef4f8f8	0.47846198
120	0x3f9762f7	1.1827077
121	0x3f7fbeb5	0.9990037
122	0x3f958d79	1.1683799
123	0x3ee1b759	0.44085196
124	0x3f9d85e3	1.2306484
125	0x3fb7c5b4	1.4357209
126	0x402b262e	2.6742053
127	0x3fab2336	1.337012
128	0x3ecc3e4b	0.39891276
129	0xbf948485	-1.1602942
130	0x3c485508	0.012227304
131	0x3ee195ba	0.44059545
132	0x3f7753f2	0.96612465
133	0xc08ebe00	-4.4606934
134	0xc04efd61	-3.234215
135	0x3ee18f36	0.44054574
136	0xbecde5ae	-0.40214294
137	0x3ecc0e99	0.39854887
138	0x3f7eebeb	0.9957873
139	0x3eeb42a6	0.45949286
140	0x3edc9e27	0.4308941
141	0x3f2f438f	0.6846246
142	0x3ed743df	0.4204397
143	0x3eed1462	0.46304613
144	0xbffa0a99	-1.9534484
145	0x3e979384	0.29604733
146	0x3f39f327	0.72636646
147	0x3f6acacf	0.9171571
148	0x3e2bb5d9	0.16768588
149	0xbf96ecc6	-1.1791008
150	0x3f2b4494	0.66901517
151	0x3ef417fe	0.47674555
152	0x3f5de94f	0.86684126
153	0x3f287217	0.6579909
154	0xc023e405	-2.5607922
155	0x3f8cdc82	1.1004794
156	0x3fbcac58	1.4740095
157	0xbf0fd013	-0.5617687
158	0xc02ab229	-2.667124
159	0x3fc68a7e	1.5511014
160	0x3f1b5fc5	0.6069301
161	0xbfbd26e7	-1.4777497
162	0x40476907	3.1157854
163	0xc066de40	-3.607315
164	0x3f62b681	0.8855973
165	0xc0c3ca46	-6.1184416
166	0x3faf7700	1.3708191
167	0x3ed9adca	0.42515403
168	0xbf38cef5	-0.7219079
169	0x3f75dd8a	0.96041167
170	0x3fb6eec1	1.4291612
171	0x3f65eed7	0.89817566
172	0x3e9ea578	0.30985618
173	0x3fa9c028	1.3261766
174	0xbe8b7715	-0.2723929
175	0xbfe7fffe	-1.8124998
176	0x3df11d78	0.11773199
177	0xc090564a	-4.5105333
178	0xc0055b90	-2.0837135
179	0xbc59b77f	-0.013288378
180	0xbefd7b41	-0.49508098
181	0xbf3983aa	-0.7246653
182	0x3f4d3b64	0.8016875
183	0xc060b544	-3.5110636
184	0xbf4a2591	-0.7896357
185	0x3ec902c2	0.39259917
186	0x3e86bb06	0.26314563
187	0xc0945a32	-4.63601
188	0xbfea301d	-1.8295933
189	0x3e8c07dc	0.27349746
190	0xc0c193ca	-6.0492907
191	0x3fc7ab02	1.5599062
192	0x3f383716	0.71959054
193	0xc06c0c7c	-3.688262
194	0x3e7e70ea	0.24847761
195	0x3ee81bf4	0.45333827
196	0x3eec9334	0.46206057
197	0xc043303d	-3.0498192
198	0xbf165830	-0.58728313
199	0xc0071e5f	-2.1112287
200	0xc026d011	-2.6064494
201	0x3e7e847e	0.2485523
202	0x3f057801	0.52136236
203	0x4068b023	3.6357505
204	0x3f81e361	1.0147516
205	0x3fa9d546	1.3268211
206	0x3f17e4da	0.59333575
207	0x3eaa5782	0.33269888
208	0x3e1174f2	0.14204767
209	0x405aaaa3	3.4166648
210	0x3fa5ee30	1.2963314
211	0x3f3e2e78	0.74289656
212	0x3f8582fd	1.04306
213	0xc00642db	-2.0978305
214	0x3f4483e4	0.7676375
215	0x3f5a7efe	0.85350025
216	0xbf8fe7b3	-1.1242584
217	0xbd0ceda3	-0.034406316
218	0xbfd1a554	-1.6378579
219	0xbfb38436	-1.4024723
220	0xc095e647	-4.68436
221	0x3f34dad6	0.7064642
222	0x3fa004e5	1.2501494
223	0x3f8ffc0d	1.1248795
224	0x3eb01bb1	0.34396127
225	0x3f989ae0	1.1922264
226	0xbe675fc3	-0.22595124
227	0x3f4e8148	0.8066602
228	0x3ad3de80	0.0016164333
229	0x3fa51b36	1.2898929
230	0xbfcbbd84	-1.591721
231	0x3eb8cbed	0.36093083
232	0x3f9c16ff	1.2194518
233	0xbf429f0c	-0.76023936
234	0x3f4ee50d	0.80818254
235	0x3f9c22ed	1.2198159
236	0xbfa135c8	-1.2594538
237	0xc07c8902	-3.9458623
238	0xbf4cbd4a	-0.7997633
239	0x3f23936e	0.63896835
240	0xc0460a51	-3.0943797
241	0xc04381b5	-3.0547917
242	0x3f1a035b	0.6016137
243	0xbc9d78dc	-0.01922267
244	0x3f979ac4	1.1844106
245	0x3efeee8e	0.49791378
246	0xbd4206cc	-0.047369763
247	0x3ed8f598	0.42374873
248	0x3fa65671	1.299513
249	0x3f752639	0.9576145
250	0x3f8f6ff6	1.1206043
251	0x3ee05f92	0.43822914
252	0x3f931c6b	1.1493047
253	0x3fbb629b	1.4639467
254	0x4021296d	2.5181534
255	0x3fa443d4	1.28332

bias f4 [64]
0	0xbf4d653d	-0.802326
1	0xbf384feb	-0.71996945
2	0xbcaad5cb	-0.020853898
3	0xbe498706	-0.19680414
4	0x3e0bf2da	0.1366686
5	0xbf5c5ed5	-0.860822
6	0xbb0b9a12	-0.002130155
7	0xbf21ab98	-0.63152456
8	0xbf2c9833	-0.6741974
9	0xbeaf333e	-0.34218782
10	0x3e389562	0.18025735
11	0xbc8e5d0e	-0.017378356
12	0xbed6c14d	-0.41944352
13	0xbf2e7d39	-0.68159825
14	0xbf4ccaf0	-0.7999716
15	0x3e5736cc	0.21016997
16	0xbf8112b8	-1.0083838
17	0xbf6b30b4	-0.9187119
18	0xbf2fe56d	-0.6870945
19	0xbf3122a3	-0.69193476
20	0xbf425b25	-0.75920326
21	0xbd7835f5	-0.060598332
22	0xbebd13ba	-0.36929113
23	0xbf50e782	-0.8160325
24	0xbed9f3f8	-0.42568946
25	0x402f30cf	2.737354
26	0xbf461b59	-0.7738548
27	0xbd831596	-0.064006016
28	0xbf540eeb	-0.82835263
29	0x3d1bf830	0.038078487
30	0xbf36addc	-0.7135904
31	0x3db5d2c0	0.08878088
32	0x3f69b0dc	0.9128549
33	0xbf56ea50	-0.8395128
34	0xbf593b41	-0.8485604
35	0xbeb78a29	-0.35847595
36	0xbf090420	-0.5352192
37	0x403cba4c	2.9488707
38	0xbed9e3d6	-0.42556638
39	0x409e52f6	4.947627
40	0x3f450bd5	0.7697118
41	0xbeed8bfd	-0.46395865
42	0xbc802b58	-0.015645668
43	0xbf19021d	-0.5976885
44	0xbf5ee35e	-0.87065685
45	0xbee378f5	-0.4442822
46	0xbf66b707	-0.9012303
47	0xbf34d467	-0.706366
48	0x40134deb	2.3016307
49	0xbf5a945c	-0.8538263
50	0xbe857340	-0.2606449
51	0xbe8bd695	-0.2731215
52	0xbf4f2be9	-0.80926377
53	0x3e0fd816	0.14047274
54	0xbed01e69	-0.406482
55	0x3e0b9104	0.13629538
56	0xbf369bef	-0.71331686
57	0xbeba54f6	-0.36392945
58	0xbdb12a1b	-0.08650609
59	0xbf539a38	-0.82657194
60	0xbf602697	-0.87558883
61	0xbf11dfe1	-0.5698224
62	0xbf576bc9	-0.8414884
63	0xbf2f6809	-0.6851812

weight f4 [2, 64]
0	0x41495459	12.583093
1	0x4148d7f4	12.552723
2	0x4111c30e	9.110121
3	0x41108946	9.033514
4	0x41172290	9.445938
5	0x41494754	12.579914
6	0x3e04e919	0.12979545
7	0x413fa4cf	11.977736
8	0x4149fad8	12.623741
9	0x4118aea9	9.542642
10	0x411f7215	9.965352
11	0x41119361	9.098481
12	0x413133e0	11.075165
13	0x413c0078	11.750114
14	0x4140a3d0	12.039993
15	0x41000d0e	8.003187
16	0x4140c4c3	12.048038
17	0x4142befa	12.171625
18	0x414968cf	12.588088
19	0x414888f0	12.533432
20	0x41445856	12.271566
21	0x3d84668d	0.064648725
22	0x412ed3b5	10.926686
23	0x4144b8ec	12.295147
24	0x4134c5bf	11.298278
25	0x40e44284	7.1331196
26	0x413f387a	11.951288
27	0x41125869	9.1465845
28	0x4145cf17	12.363059
29	0x3a0d99b0	0.00054016244
30	0x41460980	12.377319
31	0x41132d6e	9.198591
32	0x40b154e4	5.5416126
33	0x41492222	12.570833
34	0x41354d28	11.331337
35	0x4137a44f	11.477614
36	0x41243e18	10.26516
37	0x40e96745	7.293856
38	0x41302076	11.007925
39	0x40eb4501	7.3521733
40	0x40e4c307	7.148807
41	0x413693a0	11.411041
42	0xbc9bfe43	-0.01904214
43	0x413af176	11.68395
44	0x41361ac4	11.381535
45	0x411a0c80	9.628052
46	0x413e0301	11.875733
47	0x41455875	12.334096
48	0x40b74ecb	5.7283683
49	0x41486f11	12.527116
50	0x41171fef	9.445296
51	0x411e951e	9.911406
52	0x41455af2	12.334703
53	0x40f5cc01	7.681153
54	0x40ebd23a	7.3694124
55	0x41304d32	11.0188465
56	0x414a4401	12.6416025
57	0x411578f4	9.34203
58	0x412a6d89	10.651742
59	0x414336ff	12.200927
60	0x413ee3b7	11.930594
61	0x41493fcf	12.578078
62	0x413e5af9	11.89721
63	0x414b76df	12.716521
64	0x414674b6	12.403494
65	0x41460504	12.3762245
66	0x412edbb0	10.928635
67	0x41306802	11.025393
68	0x412a7cd5	10.655477
69	0x4148e2af	12.555343
70	0xbdab0154	-0.08349863
71	0x413f89ca	11.97114
72	0x414831df	12.512176
73	0x4130b683	11.044559
74	0x41201279	10.00451
75	0x4129fde5	10.624486
76	0x412b462e	10.704634
77	0x413d3838	11.826225
78	0x41413aeb	12.076884
79	0x412df409	10.872079
80	0x4141b439	12.1065
81	0x4145b648	12.357002
82	0x414763e4	12.461887
83	0x4146976e	12.41197
84	0x4144240d	12.258801
85	0xbd7fad1d	-0.062420953
86	0x4146c41c	12.422878
87	0x41438688	12.220345
88	0x41357128	11.340126
89	0x40b8903a	5.767606
90	0x413eff88	11.937386
91	0x4120bc0e	10.045912
92	0x41450021	12.312531
93	0xbcd02035	-0.025405983
94	0x4144b310	12.293716
95	0x4122c387	10.172736
96	0x412fb466	10.981543
97	0x414766a0	12.462555
98	0x413a9253	11.660724
99	0x413e48f1	11.892808
100	0x4126bd23	10.421176
101	0x40b747fe	5.727538
102	0x412a4d8a	10.64393
103	0xbf724a12	-0.9464427
104	0x41093a5e	8.57675
105	0x413bf1e0	11.7465515
106	0xbdbefa7a	-0.09325118
107	0x413a297f	11.635131
108	0x4138dcd7	11.553916
109	0x41347dba	11.280695
110	0x41418739	12.095513
111	0x41477341	12.465638
112	0x402a0ddc	2.657096
113	0x4147e9ce	12.494581
114	0x4122ff30	10.187302
115	0x41259d2a	10.35087
116	0x414519af	12.31877
117	0x41226d06	10.151617
118	0x411fbd5b	9.983729
119	0x414b3d00	12.702393
120	0x4148375a	12.513514
121	0x412255d9	10.145959
122	0x4124fb59	10.311364
123	0x4142d871	12.177842
124	0x4142fff2	12.187487
125	0x4148cd24	12.550083
126	0x41479c16	12.475607
127	0x41490648	12.5640335

bias f4 [2]
0	0x40e13f60	7.038986
1	0x41705ae5	15.022191
